nn_closed_loop/models/Quadrotor_8D/intermediate_policy_0.pt (torch, 43079 bytes, 10 tensors)

weight f4 [32, 188]
000000 76 84 37 bc f2 3c ea 3c 34 03 91 bd c4 79 3c bd
       -0.011201015 0.028593514 -0.07080689 -0.046014562
000010 12 23 11 bd a6 5d 55 3c c6 49 14 bc dd 25 82 3d
       -0.035433836 0.013022816 -0.009050792 0.06354878
000020 d6 1e 8d bc 9e cd 0c 3c 26 5c 07 bd 77 33 96 bb
       -0.017226618 0.008593945 -0.033046864 -0.004583772
000030 22 a0 9d bd 33 d8 45 bd 59 38 26 bd 41 18 03 bc
       -0.076965585 -0.048301887 -0.04058108 -0.008001388
000040 99 2f 92 3c 97 0e 5e 3d fe 4c 68 bd 23 16 02 bd
       0.017844962 0.054213133 -0.05671405 -0.031759392
000050 16 66 85 3c 2a 3f 4c 3d fc cf d4 bc 39 1d 84 3d
       0.01628403 0.049864925 -0.02597808 0.06450886
000060 71 88 9c bc 4a e1 fc 3b d4 48 65 3d ae 79 a0 bd
       -0.01910803 0.0077172862 0.055977657 -0.078357086
000070 46 ef 68 bd 12 a7 0b bc ee eb 12 bd 58 0d 81 3d
       -0.056868814 -0.008523719 -0.03586953 0.06301373
000080 a8 4d 69 bd 48 5d 35 bd af 85 7d bd 1d ca 7d bd
       -0.056958824 -0.044278413 -0.06189507 -0.06196033
000090 36 f6 49 bd ff 64 80 3d 13 1f bd 3c 94 b5 c9 3c
       -0.04930707 0.062692635 0.023086106 0.024622716
0000a0 35 aa e8 bb bc cf ed bc 5c ef 24 3c 47 76 8b bd
       -0.0071003684 -0.02902972 0.010066833 -0.06809669
0000b0 d2 d1 74 bd 59 09 46 bd 54 b6 0f 3d 71 19 41 3d
       -0.059770413 -0.04834876 0.03508599 0.047143403
0000c0 7a 0e 04 bd 90 76 2c bb 3c dd 31 3d a4 dc 7c 3d
       -0.03224037 -0.0026315786 0.043423876 0.061733857
0000d0 94 a8 93 3c 2c 48 8c 3c 09 e8 54 3d d1 e4 2f bd
       0.01802472 0.017124258 0.0519791 -0.042942826
0000e0 f1 9d 72 3c e2 e7 89 bd ca bd 7b bd b5 c6 dd bc
       0.014808164 -0.06733681 -0.061460294 -0.02707229
0000f0 10 93 17 3d a6 46 f0 3c fd ef 1c bd f6 d6 37 3c
       0.037005484 0.029330563 -0.03831481 0.011220684
000100 1f ad ee 3c fd ad f0 3a ba 3d d4 3b 5c 6f 8a 3c
       0.029135285 0.00183624 0.006477085 0.016898803
000110 b1 57 56 3d 52 77 72 3d 12 6a 89 bd 9c 12 80 bc
       0.052329723 0.059195824 -0.067096844 -0.015633874
000120 15 5a 00 3d 89 83 77 3d 99 b1 92 3d 35 20 5b 3d
       0.03133591 0.060428176 0.0716278 0.053497512
000130 e8 ef 6d 3b 0e b3 57 bd 85 17 08 3c 56 e3 3a bd
       0.0036306325 -0.052660994 0.008306389 -0.04562696
000140 6d f4 6a bd 55 dd 5c 3d f0 99 36 3d 40 08 82 bd
       -0.05736201 0.053922016 0.0445804 -0.0634923
000150 86 4c 74 3c 19 4c 49 bc 3f 32 a6 ba d7 64 35 bd
       0.014910823 -0.0122862095 -0.001267977 -0.04428562
000160 c0 b3 8c 3c ee a2 1f bd 9e cf d7 3c 29 12 17 3d
       0.017175555 -0.03897374 0.026344117 0.036882553
000170 4e 95 80 3d 4b e7 85 3c b7 16 aa bd ff 26 4e bd
       0.062784776 0.01634564 -0.08305114 -0.05033016
000180 ab bd 1d 3d 82 19 7a 3c 75 49 3f bd 73 e2 58 bd
       0.03851096 0.015264871 -0.046700913 -0.052950334
000190 ba 92 6c 3d 73 2c 1b 3d 92 e7 f0 bc 52 5f 96 bc
       0.057757117 0.037884187 -0.029407296 -0.018356
0001a0 bd e6 77 bd 11 7c 49 bc 56 b0 86 bd 31 a6 8b bd
       -0.060522784 -0.012297646 -0.06576602 -0.06818808
0001b0 2c 2c 9a 3a 88 69 33 3c b6 7d d4 bc c5 24 04 3d
       0.0011762432 0.010950454 -0.02593885 0.03226163
0001c0 fe 28 62 bd d7 c1 5e 3d f7 16 6a 3d 49 ea 7b bd
       -0.055214874 0.05438408 0.057150807 -0.06150273
0001d0 19 2f 93 bc e3 c5 fd bb d9 16 3d b9 00 67 d6 3b
       -0.017966794 -0.007744537 -0.00018032956 0.0065430403
0001e0 a6 c0 18 3d 0c 27 8f 3b 82 b6 22 bd cb 37 c0 3c
       0.0372931 0.0043686684 -0.039724834 0.023464104
0001f0 aa 6a a5 bd e2 35 55 bd 09 21 0a bc 20 84 11 bd
       -0.08076985 -0.05205334 -0.008430728 -0.035526395
000200 b3 8b 08 bd 40 0d 91 bd 61 8a d7 bc d2 7c f0 3b
       -0.033336353 -0.07082605 -0.026311101 0.0073390985
000210 4e 64 17 bd 97 4a 75 bb 08 c4 2e 3d 98 ee 97 bc
       -0.036960892 -0.0037428492 0.04266742 -0.018546388
000220 98 87 0f bc ef f6 5d bc 37 ea d0 3c fe f1 3d 3d
       -0.008760355 -0.013547643 0.025502307 0.04637336
000230 a1 85 71 3d 2c 74 10 3d 7d 77 6f 3d a4 02 25 bc
       0.05896533 0.03526704 0.058463562 -0.01007143
000240 6f 08 61 bd 2f 9f 0d bd 31 89 22 3d f3 c3 3c bc
       -0.054939684 -0.034575637 0.039681617 -0.011521327
000250 45 9c 40 bd f6 65 44 bd 70 b9 6c bd c0 21 7c bd
       -0.04702403 -0.0479488 -0.057794034 -0.061555624
000260 31 c1 c7 bc 44 29 ed 3c 54 d0 ea 3c b4 f1 6f bd
       -0.024384113 0.028950341 0.028663792 -0.058580115
000270 cb 12 65 3d 9e c2 69 bd 00 a1 c9 bc 0b 5b 26 bd
       0.055926125 -0.057070367 -0.024612904 -0.04061417
000280 c3 38 cb bc 08 d5 5b bb 40 08 61 bd d2 f7 80 bd
       -0.02480734 -0.0033543725 -0.05493951 -0.06297268
000290 d4 c6 a8 bc db 57 25 bc 0b bf 33 bd 2c 93 14 3d
       -0.020602621 -0.010091747 -0.043883365 0.036273167
0002a0 16 21 61 bd d6 48 a1 bb 4d 39 5c 3d 99 00 27 bd
       -0.054963194 -0.004922013 0.053765584 -0.040772054
0002b0 5f bf 61 3d c5 e2 04 3d 9e c7 60 bd b3 01 3d 3d
       0.055114146 0.032442827 -0.05487787 0.0461442
0002c0 bd a6 a6 bc 85 6f 32 bd 52 e8 42 3d d6 4b 61 bd
       -0.020343179 -0.043563385 0.04758484 -0.055003963
0002d0 13 3e 9c 3c 1c 2e 7a bc c0 1b 2d 3d 99 a8 19 3c
       0.019072568 -0.015269782 0.042262793 0.009378576
0002e0 fb 34 c7 3c 24 e0 dc 3c f9 04 c6 bb a9 4c 7b bc
       0.024317255 0.026962347 -0.0060430733 -0.015338101
0002f0 29 8b 13 3c ca 3f 01 be 99 23 af 3e e6 09 49 3d
       0.009005346 -0.1262199 0.34206846 0.049081706
000300 e8 54 ee bd 09 56 a5 3d e1 ab 10 3e 00 00 33 3d
       -0.11637288 0.080730505 0.14128067 0.043701172
000310 79 7d 7b bd ae 0a 06 3d 4a 67 11 bd 08 3e 1c 3b
       -0.061398957 0.03272503 -0.035498895 0.0023840684
000320 7b 47 16 3c b8 91 40 3d 84 89 8f bd d8 60 25 bd
       0.009172316 0.04701397 -0.07008651 -0.04037556
000330 e8 ff 0b bd 1d 8d b5 3c 8c 43 01 ba 06 fa 7b 3d
       -0.034179598 0.022162015 -0.0004931025 0.061517738
000340 96 c1 d8 3b af e8 b3 3c 7f be fb 3b 92 c4 1f bd
       0.006614874 0.021961538 0.007682621 -0.039005823
000350 99 4e 88 3d 71 6d 88 bc 81 84 e5 bc 46 eb c3 3c
       0.06655616 -0.016653748 -0.028017284 0.023915898
000360 7a d5 46 bd 82 21 55 bd 90 23 a0 3d 40 6f 72 bd
       -0.04854343 -0.05203391 0.07819283 -0.059188128
000370 17 d3 13 bd 72 b5 b2 3d 38 b8 0b 3d 79 ef af 3c
       -0.036089983 0.08726014 0.03411123 0.021476494
000380 dd a6 5f bd 28 fc 13 3d 4f cc a1 bd fb ba bf bb
       -0.054602493 0.036129147 -0.07900297 -0.005851147
000390 c2 19 90 bc d3 77 8e bc cf af 9f bc 60 65 76 3d
       -0.017590407 -0.017391121 -0.019493012 0.060155272
0003a0 79 8c 9a bc 7b 06 a1 3d e5 97 4d 3d f6 67 7d bd
       -0.01886581 0.07862564 0.050193686 -0.061866723
0003b0 72 61 32 bc 11 2c 53 bd 30 e4 73 bd 30 31 08 3d
       -0.010887491 -0.051555697 -0.05954379 0.033250034
0003c0 bd 65 e8 3c 7b e0 9b 3d 4c c2 92 bd 46 da f4 38
       0.028368825 0.076111756 -0.071659654 0.00011675483
0003d0 87 6a 94 3c c4 3d 76 bd c2 16 64 3d 78 bb 83 bd
       0.018117202 -0.060117498 0.055685766 -0.06432241
0003e0 47 a7 5a bd 4f 28 4b bc 4b 0f 5d bd ba 57 a8 3c
       -0.053382184 -0.012399747 -0.053969663 0.020549644
0003f0 a7 17 80 3d 2f 43 e0 bc 3e 63 87 bd 0c f7 dc bc
       0.06254511 -0.027375786 -0.06610726 -0.02697327

bias f4 [32]
000000 ff 67 45 bd 0c 67 2b bd 42 27 6d 3d 78 49 5e 3d
       -0.04819488 -0.04184632 0.057898767 0.054269284
000010 ea 9d 1f 3d ac 05 7c bd fa 98 cd bb 26 33 89 bd
       0.038968958 -0.061528847 -0.0062743397 -0.06699209
000020 0f d2 c1 3d 8c 45 db bb 6c 9f 95 3d a4 bf 95 3d
       0.094638936 -0.0066916402 0.07305798 0.07311943
000030 d9 0b 3c 3d bb 50 f3 bb f4 3a a4 3d ef b6 19 3d
       0.045909736 -0.0074253953 0.08019057 0.037527975
000040 3d b3 c6 3c 1c dc bb 3d 78 e8 5d 3d 87 38 99 3d
       0.02425539 0.09172842 0.054176778 0.07481485
000050 5c 2f 04 3e 62 a3 52 3d a4 61 43 3d 77 e7 e5 3d
       0.12908691 0.051425345 0.04770054 0.11225789
000060 16 f7 5b 3d 21 44 6a bd 57 c9 bd 3d fc 6e 4c bd
       0.053702436 -0.05719388 0.09266918 -0.04991053
000070 1d 09 22 bc 1e 97 81 3d 9d 6f ff bc 47 21 94 3d
       -0.009889868 0.063276514 -0.031181151 0.0723291

weight f4 [32, 32]
000000 e9 2b 21 3e d7 74 50 3d 0f f4 02 be c6 cb 71 3b
       0.15739407 0.050892677 -0.12788413 0.003689514
000010 ef d8 0c 3e 37 0d 02 3d cb b2 1d 3e 51 95 51 3c
       0.13754629 0.031750884 0.15400235 0.012791947
000020 86 ab a7 bd 61 40 ec 3d ab 9d 6f 3d 7e e3 c7 3d
       -0.081870124 0.11535717 0.058499973 0.097601876
000030 d6 52 d8 bd dc 40 09 be d2 7b f2 3d 6b 4e 7d 3d
       -0.10562675 -0.13403648 0.11840023 0.061842363
000040 1a 6f 04 3e 23 ec 16 be b5 97 a6 bd 41 91 b7 bb
       0.12933007 -0.14738517 -0.081344046 -0.0056020324
000050 e5 09 bc bd 00 30 e2 3d d0 c4 0f 3e eb e5 1c 3e
       -0.09181575 0.110443115 0.14039922 0.15322082
000060 96 5b cb 3c 69 61 24 be c3 db 81 bd 73 fb 27 3d
       0.024823945 -0.16052784 -0.06340744 0.041011285
000070 e9 68 43 bd 60 9d 9a 3d 25 80 41 bd dc 94 15 3e
       -0.047707472 0.07549548 -0.04724135 0.14607567
000080 bf cd 1c 3e e5 96 20 3e 46 2e 25 3d 33 83 0d be
       0.15312861 0.15682562 0.040327333 -0.1381958
000090 d4 08 83 bd 92 34 c1 bd bd d6 a2 3d 7f 1c 7e bc
       -0.06398168 -0.09433855 0.07951114 -0.015509724
0000a0 46 cf 54 3d ad 2d 52 3d 30 12 95 bd 54 f6 bb 3b
       0.051955484 0.05131309 -0.072788596 0.0057361517
0000b0 cc 9e 39 bd 4b ba fa 3c a7 fc 07 be ba 81 7a bc
       -0.045317456 0.03060641 -0.13279973 -0.015289718
0000c0 c2 fa 09 3e 2d 31 95 3d a7 8e 03 be fe 6e 04 3e
       0.13474563 0.0728477 -0.12847386 0.12932965
0000d0 3d c8 b0 bd 70 e0 0e 3e d5 cb 5e bd 9d 68 1b 3e
       -0.086319424 0.13952804 -0.054393608 0.15176626
0000e0 70 a5 ae 3d d7 6b 6f bc a3 57 cd 3d b9 c0 19 3e
       0.085276484 -0.014613113 0.10026481 0.15014924
0000f0 3d 96 0d be c4 12 57 3c 88 d5 f7 3d e2 c7 17 bd
       -0.13826843 0.013127033 0.12101275 -0.037055857
000100 da cc db 3d c6 fb 16 3e 65 66 bd 3d 71 e1 6e 3e
       0.10732432 0.14744481 0.09248046 0.23328187
000110 47 ae 0b be 44 f0 ed 3d c0 2f c8 bd bb 5c 61 bd
       -0.136407 0.11618093 -0.097747326 -0.055020075
000120 52 6b 45 3e 79 e9 27 be 9a ad 6a 3e 1f 65 41 3d
       0.1927922 -0.16397657 0.22917786 0.047215577
000130 b2 22 c8 3e 0f d4 44 3b a5 98 0a be 40 f0 9a 3d
       0.3908897 0.0030033623 -0.13534792 0.07565355
000140 ac 0a 4c 3d ae d6 73 3d 1a d0 b3 be 04 74 45 3d
       0.049814865 0.059530906 -0.35119706 0.048206344
000150 c4 7f cd 3d b9 b8 73 3c b4 e7 4c be 56 39 01 be
       0.10034135 0.014875584 -0.20010263 -0.12619528
000160 62 78 94 be 47 57 10 be aa 13 45 3e da 96 12 3e
       -0.28998095 -0.14095794 0.19245782 0.14315358
000170 4c 21 a2 3d c0 65 eb bb 3f 44 22 3e ef d6 52 be
       0.07916507 -0.0071837604 0.15846346 -0.20589803
000180 14 a6 6b bd 50 ed 95 3d fc 49 2b 3e e7 3b 0c 3e
       -0.05753143 0.073206544 0.16727442 0.13694726
000190 73 51 b7 bd 27 96 18 be d5 3c 31 be 79 47 b1 3c
       -0.08951082 -0.14901029 -0.17308362 0.021640526
0001a0 57 97 e6 bd 9b 55 cf bd 09 a5 8a 3e 1d 15 e3 3b
       -0.112593345 -0.1012375 0.27079037 0.006930007
0001b0 54 4f 39 3e 0e 5a e9 bd 04 ce 48 3c ef 03 2f 3e
       0.18096668 -0.1139413 0.012256149 0.17091344
0001c0 d0 d9 82 3d cf 3e 42 3d 2a e2 86 be 27 5b ab bd
       0.06389201 0.04742318 -0.26344424 -0.08366995
0001d0 01 17 b3 3d e9 1b 81 3d 0a 09 9b bd c4 f6 09 be
       0.08744622 0.063041516 -0.075700834 -0.1347304
0001e0 0b ab 96 bd f6 60 31 be 36 5b 53 3e f8 b4 9d 39
       -0.073568426 -0.17322144 0.20640263 0.00030080206
0001f0 32 3a cf bd c5 46 9f 3c b3 5c 83 bd 24 59 20 be
       -0.10118522 0.019442925 -0.06414165 -0.15659004
000200 86 8f 34 bd 16 68 05 3d 53 4e d0 bd 36 bd 36 3d
       -0.044082187 0.032569967 -0.10171189 0.04461404
000210 d6 29 15 be 2f 79 2a 3e ec fd d8 bd 74 f2 99 3d
       -0.1456674 0.1664779 -0.10595307 0.075169474
000220 24 d0 f7 bd 9f 1c f7 bd 91 91 d4 bc f3 3d ce bd
       -0.121002465 -0.12066006 -0.025948318 -0.100704096
000230 d1 95 4a bd 74 7a 9d bd a6 80 4a bd a9 ef 0b be
       -0.049459282 -0.07689372 -0.049439095 -0.13665642
000240 ff 8b 30 3e 09 31 cc 3d 48 55 81 bd 98 73 03 3e
       0.17240904 0.0997029 -0.06315094 0.12837064
000250 b7 4c a1 bd 06 e0 13 be 4f ec 67 3d fb 29 79 bd
       -0.0787596 -0.14440927 0.056621846 -0.06083105
000260 15 24 08 3e 54 d8 42 bd cb 62 13 be e3 a3 18 3e
       0.13295014 -0.047569588 -0.14393155 0.14906268
000270 9f 87 22 3d 0a c1 5b 3d 73 0d 8c bc d2 ef 0f be
       0.03968012 0.053650893 -0.017096257 -0.14056328
000280 0f 7b 40 3d f2 7a 92 b9 08 3a 9e bd bf 2b 83 3e
       0.046992358 -0.0002793889 -0.07725912 0.25619313
000290 fe 00 a2 be 55 80 dd bd 1d d4 28 bd 5b 34 2f be
       -0.31641382 -0.10815493 -0.041217912 -0.17109816
0002a0 4b c0 5d be 02 63 97 bd 35 b4 5c 3e 85 b3 22 3e
       -0.21655385 -0.07391931 0.21553119 0.15888794
0002b0 17 40 34 3e 90 18 29 3e 58 72 54 bd aa 58 41 3e
       0.17602573 0.16513276 -0.05186686 0.18881479
0002c0 24 13 ae bd 69 93 8d bd 39 cd 87 be 56 82 83 bd
       -0.084997445 -0.06912882 -0.2652376 -0.06421344
0002d0 b9 50 ad 3d b9 7a 49 bd ef 38 d7 bd f5 bc 50 3e
       0.08462662 -0.049189303 -0.10508906 0.20384581
0002e0 cd 6c 9d bd fe da 85 3d 2c 51 2d 3e ae 69 15 3d
       -0.07686768 0.0653591 0.16925496 0.036477737
0002f0 86 87 b9 bd 13 94 98 3e 94 78 1a be c0 1e 85 be
       -0.09059052 0.29800472 -0.1508506 -0.26000023
000300 08 3c 0d 3e 3c 43 07 be 1d 6e 22 3e 0c 48 8b 3d
       0.13792431 -0.13209242 0.15862317 0.06800851
000310 c4 fd 70 3d 59 55 b3 bc ef 31 08 3d 6e af 39 3d
       0.05883576 -0.021891283 0.033250745 0.04533332
000320 99 eb bc bd 76 4e ef 3d eb fa ca 3d e1 30 84 3b
       -0.09224624 0.11684887 0.0991114 0.004034147
000330 6a a7 24 3d 08 c4 af bc 5d 9e 99 bd 27 e3 0c be
       0.04019872 -0.02145578 -0.075009085 -0.13758527
000340 9f b0 a2 bd 68 28 2b be 91 68 69 bd b4 86 b2 3d
       -0.07943844 -0.16714633 -0.056984488 0.08717099
000350 d4 31 26 3e 10 bc 29 be e7 7a 16 be 40 de 0b 3e
       0.16229945 -0.16575646 -0.14695321 0.13659
000360 9e 9b 9b bd a3 c7 7a 39 d3 f8 e2 3d 05 57 20 3e
       -0.07598041 0.00023916228 0.11082616 0.15658195
000370 74 1b 89 3d 7a c2 2e 3d 17 ac 8b bb 66 7f 54 bc
       0.066946894 0.042665936 -0.004262458 -0.012969827
000380 61 02 9e 3d 6d fd 17 be f0 fc 85 bb d5 ed 75 3e
       0.077152975 -0.14842768 -0.0040889904 0.24016507
000390 14 50 60 be 15 41 be 3d 22 07 03 3e 3c 15 f0 3d
       -0.21905547 0.09289757 0.1279569 0.117228
0003a0 f3 bc d7 3d dd e9 af 3c c4 5f 93 3e c5 01 2e 3e
       0.10534086 0.02147382 0.28784 0.16992863
0003b0 74 ee 39 3e 32 40 02 be 9b bf bc 3d a0 e5 22 3e
       0.18157369 -0.12719801 0.09216233 0.15907907
0003c0 1f 22 dd 3d 5f 3a 06 be 9a 88 1a be 1b 6f fb 3c
       0.10797524 -0.13108204 -0.15091172 0.030692628
0003d0 af d8 a8 3c 0f 14 bd 3e c8 dd 94 3b 66 70 55 3e
       0.020611135 0.36929366 0.00454304 0.20843658
0003e0 bb 2c fc 3c 8f 04 f9 bd 0b bb 9e 3e 9b de 20 3c
       0.030783048 -0.121590726 0.31002077 0.009818698
0003f0 4e f4 24 3e fd 5d 22 3e 0c c8 c6 bc b1 d0 9f 3d
       0.1610882 0.15856166 -0.024265312 0.078034766

bias f4 [32]
000000 14 a4 26 be 74 9e dc bd ac 46 cc 3d 26 f8 da 3d
       -0.16273528 -0.1077241 0.09974417 0.10691862
000010 1e ab 94 bd 0f 84 a5 3d d1 d7 d9 bd e5 e5 92 bd
       -0.072592005 0.08081829 -0.10636867 -0.07172755
000020 be a7 cf 3d 8a 57 32 3d 1f 78 04 be 59 69 52 bc
       0.10139416 0.043540515 -0.12936448 -0.0128425
000030 5b 68 24 3e 3b c8 4f 3d d5 7f 29 bd 9f 18 a9 3b
       0.16055433 0.050728064 -0.041381676 0.0051604058
000040 38 c4 d7 bd 42 c6 13 3e b3 c4 fe 3c e9 d6 b6 bc
       -0.10535473 0.14431098 0.031099653 -0.022319274
000050 37 a8 81 3d d2 23 6d 3d cc e0 2c 3c 2a 95 17 bd
       0.063309126 0.05789549 0.010551643 -0.03700749
000060 21 2a 2a be 45 ee 38 3d 61 02 9f bd d6 bc a1 bc
       -0.16617633 0.045149107 -0.077641256 -0.019743364
000070 15 3e 0f bc a9 0a 8e 3d b0 39 ed bd 15 4e 9b bd
       -0.008742829 0.06935627 -0.11583269 -0.07583252

weight f4 [3, 32]
000000 a8 71 a6 bd d4 76 95 bd dc d0 6c bd 66 f8 aa bd
       -0.08127147 -0.07298055 -0.05781637 -0.083481595
000010 03 b6 9c bd d2 16 5c 3d 82 7e 86 3d eb 61 ab bd
       -0.076519035 0.0537327 0.06567098 -0.08368286
000020 02 86 ac 3d a5 de 54 3e 0e c0 0b 3e 4b da 35 3c
       0.084239975 0.20788057 0.13647482 0.011099408
000030 a2 90 f5 3d 72 e0 a2 be 19 87 3a 3d 7d bf 6b be
       0.11990477 -0.31811863 0.045538995 -0.23022266
000040 7a 10 99 3d 24 e4 f4 bd 3f 06 b6 bd 08 56 df 3e
       0.07473846 -0.11957577 -0.0888791 0.43620324
000050 9e 23 03 3d 70 0a ab bd 78 55 03 be 3f cf c7 3d
       0.03201639 -0.083516 -0.12825572 0.09756326
000060 af 5e a0 bd 26 65 a2 be e0 00 fd bd ce 35 27 3e
       -0.078305595 -0.31717795 -0.123536825 0.16329119
000070 0a 30 66 be 62 1a 41 3d 7e 91 f1 bd 93 05 86 3d
       -0.22479263 0.0471443 -0.117953286 0.06544032
000080 03 a6 2b be 18 3c 0d bd 0b 26 26 3c 78 28 0d 3e
       -0.16762547 -0.034481138 0.010140906 0.13784969
000090 5f ed 86 bc 44 36 44 3e 12 ad 09 3e 23 ef 92 3e
       -0.01647061 0.19161326 0.13444927 0.28698072
0000a0 f4 28 64 3e 77 d8 d3 bd 8e ca df 3d 22 a2 af bc
       0.22281247 -0.10344022 0.10927306 -0.021439616
0000b0 b6 11 4a 3d d0 71 1f 3e b7 7d 34 3e 18 26 11 bc
       0.049333297 0.1557076 0.17626081 -0.00885918
0000c0 40 a9 9a bc dc 05 08 be 53 95 1a be 7e f9 ca 3e
       -0.018879533 -0.13283485 -0.15096025 0.39643472
0000d0 04 d6 9c be a1 a1 a4 bd 85 13 6e 3d e9 09 12 3c
       -0.3063203 -0.08038641 0.058124084 0.008913496
0000e0 17 14 eb bc aa 0e 91 3e 9b 5b ba 3d dd 56 91 3d
       -0.028696103 0.283315 0.090995036 0.07096646
0000f0 60 9b e6 bc 0d 82 b9 bd 81 ba 23 3e c9 c7 1f 3d
       -0.02815026 -0.09058008 0.15989114 0.03900889
000100 ea 55 24 be 76 bb 09 bd 6c 01 8c 3e d7 c0 b8 3d
       -0.16048399 -0.033626042 0.27344835 0.09021156
000110 2e 95 19 3e a5 3b c1 3d 47 fc c4 bc dd bc 82 3e
       0.14998314 0.094352044 -0.024046076 0.25534716
000120 ae ac 5d be ae 6d 99 3e b7 96 07 be 0d 1d 67 bd
       -0.21647903 0.2996649 -0.13241087 -0.05642419
000130 69 8c 98 be a3 f0 02 3d ea e5 07 be da a5 99 3e
       -0.29794624 0.03196777 -0.13271299 0.30009347
000140 0f 85 a0 bd a0 91 3b be 3b 4b 40 3d a9 71 02 bc
       -0.07837879 -0.1831727 0.046946745 -0.007961669
000150 c7 48 c3 be f3 32 74 3e 18 26 12 3e 11 8f 81 3d
       -0.38141462 0.2384756 0.14272344 0.06326116
000160 cf 06 b2 3d af 8a 86 be ae 4d c6 3c ff dd 14 3e
       0.08692705 -0.26277682 0.024206962 0.1453781
000170 52 f4 bd be 47 be 93 3e 66 35 08 3e bb ee c8 bc
       -0.37100464 0.28856108 0.1330162 -0.024527898

bias f4 [3]
000000 b5 26 01 3e 90 01 40 bd 9d ca 3e bd
       0.12612422 -0.04687649 -0.046579946

weight f4 [3, 32]
000000 67 95 38 3d 67 e7 df bc 7c 23 3e bd dd 29 0d bd
       0.045064356 -0.02733202 -0.04642056 -0.034463752
000010 2e 2e 14 3d 33 fa c7 bd c3 3d 0a be 8e dd 0d be
       0.036176853 -0.097645186 -0.13500123 -0.13854048
000020 84 12 32 3e f1 64 9b 3b 0f 11 a2 3d 2e 61 2d be
       0.17389876 0.0047422578 0.0791341 -0.16931602
000030 68 e9 d3 bc 14 8c 0d be 23 1d 7a bc df 40 21 3e
       -0.025868133 -0.13822967 -0.015265736 0.15747403
000040 c1 5f 03 3e e3 b8 82 bd 2f ab c4 bd 0c 1e 14 be
       0.12829496 -0.063829206 -0.09602963 -0.14464587
000050 24 89 b2 bd 4f a2 77 3d c4 60 d6 bd 23 00 c7 3d
       -0.08717564 0.060457524 -0.10467675 0.09716823
000060 84 0b 82 bd c4 b5 27 3e 6b 2d 2f bd be dc 00 bd
       -0.06349853 0.16377932 -0.042767923 -0.031460516
000070 a9 70 d5 3d b6 cb fd 3d df b1 02 3e bc 21 03 3e
       0.10421879 0.123923704 0.12763165 0.12805837
000080 6b 28 2b be 1c a2 c7 3d d1 59 bd bd dd 6d 00 3e
       -0.16714637 0.09747717 -0.09245647 0.1254191
000090 90 d8 0c 3e 25 82 71 bc 5c ab 79 3d c8 30 19 3d
       0.13754487 -0.0147405015 0.060954437 0.037400037
0000a0 f0 11 9f 3d 4f d0 f2 3d 61 92 51 3d c6 8f 72 bd
       0.07767093 0.11856138 0.05116499 -0.059219144
0000b0 ff d4 e3 3b c9 3e a7 3c 10 93 15 be 37 ff 6d 3d
       0.0069528813 0.02041568 -0.14606881 0.05810472
0000c0 b2 e4 eb bd 55 99 e5 3d 85 37 22 3e aa 18 c5 3c
       -0.115182295 0.112108864 0.15841492 0.024059612
0000d0 43 92 17 3e 00 df 79 3b d8 aa e3 3d 48 9d b4 3d
       0.14801888 0.0038127303 0.1111657 0.088190615
0000e0 ba d9 16 be 3f 2f 11 be 2e d7 2d bd 80 1a 90 3d
       -0.14731494 -0.14178179 -0.04244154 0.070363045
0000f0 b1 bc 06 bd 3b d7 12 bd cf ec da 3d d5 36 22 3e
       -0.032894794 -0.03584979 0.10689699 0.1584123
000100 73 4a 99 3d 7d 9d 56 3d cc 01 b8 3d 5c 1b c5 3c
       0.07484903 0.052396286 0.08984718 0.024060898
000110 bd 06 23 be 53 94 33 be ad 9e 28 be d4 2f 1f be
       -0.15920539 -0.1753705 -0.1646678 -0.15545589
000120 24 1a 09 3e 28 93 4c bc 49 f4 fa bd 21 c0 1d 3d
       0.13388878 -0.012486257 -0.12253625 0.038513307
000130 e0 7c 73 3a fb 39 d9 bd 1c 37 2d be b1 9d 27 3d
       0.0009288322 -0.10606762 -0.16915554 0.04092187
000140 60 33 31 3b 20 7b 80 bd 2d db c9 bd 76 98 3f bd
       0.0027038679 -0.06273484 -0.098562576 -0.046776257
000150 3e 5d 1d 3e ed df 10 be 01 77 8f bd 43 64 66 bd
       0.153676 -0.14147921 -0.0700512 -0.05624796
000160 95 eb 25 3e e3 7e 30 3c 99 d0 f6 3d ed b5 8f bc
       0.16203149 0.01077244 0.120515056 -0.017542804
000170 6d 8d e2 bc 8f c2 cd 3d ea 4b 8b bd 92 4f d7 3d
       -0.027655328 0.10046875 -0.06801589 0.10513224

bias f4 [3]
000000 7c 5a 1e 3e 79 65 93 3d 90 72 df 3d
       0.15464205 0.07197089 0.10910523

loc f4 [32, 3]
000000 00 34 7f b9 28 0d a2 bd 80 32 29 bb 00 4a 96 3a
       -0.00024338067 -0.079126656 -0.0025817454 0.0011466146
000010 00 1f 48 b9 47 85 92 3e 20 6e 0c 3b fb de 4a bd
       -0.00019085035 0.28617308 0.0021427944 -0.049529057
000020 58 ad 80 bc 00 34 91 39 c8 e3 9e bb b2 9a c6 3e
       -0.015707657 0.00027695298 -0.004848931 0.38789898
000030 88 71 90 3d 07 80 20 bd c0 8d 7f 3a 00 00 0a b8
       0.07052904 -0.039184596 0.00097486004 -3.2901764e-05
000040 90 7f 6d bb 26 96 c9 be 40 98 15 3b e6 aa 83 bd
       -0.0036239363 -0.39372367 0.0022826344 -0.06429081
000050 e8 0b b3 bb 10 d9 a7 bd 00 cd 39 39 ec 7b 98 3c
       -0.005464066 -0.08195698 0.00017719343 0.018613778
000060 2c 98 96 3c f3 ea 35 3d c0 d7 ce bb c0 9f be 3a
       0.018383108 0.04441352 -0.0063123405 0.0014543459
000070 03 0c 5a 3d e0 a6 18 bb dc 2b 4e 3d d6 30 be 3c
       0.05323411 -0.0023292825 0.050334796 0.023216646
000080 40 29 bb ba a1 e4 86 3d 80 70 ec b9 e0 18 2a bb
       -0.0014279261 0.06586576 -0.00045097247 -0.0025954768
000090 00 e8 8e b8 80 71 18 ba 37 76 9c be 5c 23 54 3d
       -6.814301e-05 -0.00058152527 -0.3055894 0.051791534
0000a0 40 a5 64 ba fc 11 07 bc 00 1e b8 b9 cf a1 49 bd
       -0.0008722134 -0.008244034 -0.00035117567 -0.04922658
0000b0 60 77 85 bb 50 7d 87 bc 9e 67 f0 3c 00 10 56 b8
       -0.0040730685 -0.016539246 0.029346284 -5.1036477e-05
0000c0 00 ee 0b 3a da 56 9f 3c 79 75 c6 3e 00 ae 1b ba
       0.0005337894 0.019450594 0.387615 -0.0005938709
0000d0 4e 9b 95 bc 90 76 0f bc 80 9d 06 bb c0 f8 0d ba
       -0.018262532 -0.008756295 -0.0020540655 -0.000541579
0000e0 d0 44 c9 be 00 cc 53 3a c1 cc 19 3d 80 31 10 ba
       -0.39310312 0.00080794096 0.037548784 -0.000550054
0000f0 60 a6 5b bd 40 14 18 3a c0 b6 03 3c ac 0b 52 3d
       -0.053625464 0.00058013573 0.008039176 0.051280662
000100 c0 48 50 ba 00 ba 1c bb 00 d6 78 ba 00 3c 1a b8
       -0.0007945411 -0.0023914576 -0.00094923377 -3.677234e-05
000110 26 be c6 3e 00 ef 4f ba 20 cb a7 ba d7 8a 9a be
       0.38816947 -0.0007932037 -0.0012801625 -0.3018405
000120 00 f1 21 ba c2 b0 a4 3d 60 d9 0b 3c 70 9c 10 3c
       -0.00061775744 0.080415264 0.008535713 0.00882636
000130 73 c2 07 3d 98 14 97 3e 1a 53 85 bd 00 26 2b ba
       0.033144426 0.295079 -0.06509991 -0.0006528795
000140 c8 bb 99 bc 30 14 a3 bd 00 f0 6b b7 00 73 5f bb
       -0.018766299 -0.07962835 -1.4062971e-05 -0.0034095645
000150 43 ff a6 3d 9a 9e d8 3c e8 03 e9 bb 00 07 be 3a
       0.08154156 0.026442815 -0.0071110614 0.0014497936
000160 75 e4 49 3d 80 0f 47 bb 00 ac 8a ba 00 b2 a1 3b
       0.04929014 -0.003037423 -0.0010579824 0.0049345493
000170 79 e5 9d be 80 04 3a 3c f0 b4 25 bb 92 a6 bd 3e
       -0.30839136 0.011353612 -0.002528485 0.37041146

scale f4 [32, 3]
000000 33 29 96 3f 21 9b 9a 3f 7f 6b 8b 3f b5 94 8f 3f
       1.1731323 1.2078592 1.089218 1.1217257
000010 5f ab 9b 3f a3 47 84 3f 31 24 94 3f 9d 32 99 3f
       1.2161673 1.0334362 1.1573545 1.1968571
000020 c7 18 8a 3f 82 5b 8e 3f 58 7e 9e 3f 34 31 81 3f
       1.0788811 1.1121676 1.2382307 1.0093141
000030 79 53 91 3f 46 8d 9a 3f e2 da 89 3f e8 95 97 3f
       1.1353599 1.2074363 1.0769923 1.1842623
000040 b1 94 97 3f 5a 53 8e 3f 19 c7 95 3f 14 b0 98 3f
       1.1842252 1.1119187 1.1701385 1.1928735
000050 07 39 8a 3f 8f d6 92 3f 4c 73 9b 3f 97 6a 85 3f
       1.0798653 1.1471728 1.2144561 1.0423154
000060 b8 f5 92 3f 84 a3 98 3f 20 30 87 3f ed 2f 94 3f
       1.1481237 1.1924901 1.0561562 1.1577126
000070 46 89 99 3f d5 e8 86 3f e0 4a 92 3f 93 07 99 3f
       1.1995018 1.0539805 1.14291 1.1955436
000080 36 70 88 3f 9f e0 91 3f 20 ce 96 3f 96 99 8a 3f
       1.0659244 1.1396674 1.1781654 1.0828121
000090 91 ff 95 3f 09 5d 94 3f ae 6c 8e 3f 31 7c 92 3f
       1.1718618 1.1590892 1.1126916 1.144415
0000a0 da c1 98 3f c2 9c 89 3f 7d d3 95 3f 76 57 9a 3f
       1.1934159 1.0750964 1.1705166 1.2057941
0000b0 d2 a1 8a 3f 67 d9 91 3f 8f 20 9a 3f f7 7d 86 3f
       1.0830634 1.1394471 1.2041186 1.0507191
0000c0 db 61 8f 3f 7d 4a 9d 3f 67 f8 81 3f cf 09 94 3f
       1.1201738 1.2288357 1.0153931 1.1565493
0000d0 b3 7c 98 3f 7d a0 88 3f 36 d5 97 3f 6b b5 97 3f
       1.1913055 1.0673977 1.1861942 1.1852239
0000e0 9e 16 8d 3f c1 2c 92 3f cf 22 9a 3f b9 92 86 3f
       1.1022527 1.1419908 1.2041873 1.0513526
0000f0 5b bd 94 3f b4 a8 99 3f 1b 24 87 3f b9 4a 92 3f
       1.1620287 1.2004609 1.0557894 1.1429054
000100 14 51 9a 3f 22 27 88 3f 76 f0 8d 3f a2 80 9b 3f
       1.2055993 1.0636942 1.1089008 1.2148631
000110 de d7 82 3f 92 86 95 3f b2 c1 95 3f 15 82 8d 3f
       1.0222127 1.1681693 1.1699736 1.1055323
000120 9c de 90 3f e3 de 98 3f 5d b9 85 3f 2d a7 8e 3f
       1.1317935 1.194302 1.0447193 1.1144768
000130 4a 99 9d 3f 87 25 82 3f 5a b2 93 3f 62 27 99 3f
       1.2312405 1.0167702 1.1538804 1.1965144
000140 26 f7 87 3f 58 0a 95 3f a6 96 9b 3f 31 18 86 3f
       1.0622299 1.1643782 1.2155349 1.0476133
000150 16 68 93 3f 72 ad 96 3f 0b 91 89 3f 40 36 92 3f
       1.151614 1.1771681 1.0747389 1.1422806
000160 5f 36 9a 3f 06 e2 86 3f 6a 42 99 3f a8 1e 96 3f
       1.2047843 1.0537727 1.1973393 1.1728106
000170 74 2c 8e 3f 6d d5 8e 3f ae 41 9c 3f 90 73 83 3f
       1.1107316 1.1158882 1.2207544 1.0269642
