nn_closed_loop/models/Taxinet/from_pb/TinyTaxiNet.onnx (onnx, 9550 bytes, 8 tensors)

W0 f4 [16, 128]
0.748662 0.301989 0.487221 0.19032 -0.517179 0.00381475 -0.111412 -0.430859
0.0 0.0 0.0 0.0 0.0 0.0 0.0 0.0
1.78491 1.57235 0.571604 0.000268553 -1.50109 -1.39798 -0.94153 -0.984068
0.0 0.0 0.0 0.0 0.0 0.0 0.0 0.0
0.922554 0.377135 0.497848 0.277836 -0.0480767 -0.154881 -0.361308 -0.209436
0.0 0.0 0.0 0.0 0.0 0.0 0.0 0.0
0.806377 0.0108095 -0.0665592 0.078651 -0.0431482 0.0827223 0.0334896 -0.0942545
0.0 0.0 0.0 0.0 0.0 0.0 0.0 0.0
0.664545 0.245075 0.0242262 -0.13206 -0.106434 -0.273827 -0.475959 -0.17759
0.0 0.0 0.0 0.0 0.0 0.0 0.0 0.0
0.338863 0.0232029 0.139807 -0.0149609 0.00781833 -0.0916171 -0.217731 -0.242466
0.0 0.0 0.0 0.0 0.0 0.0 0.0 0.0
0.201278 -0.0287507 -0.0147499 0.0411829 -0.0783959 -0.0839775 -0.114038 -0.085767
0.0 0.0 0.0 0.0 0.0 0.0 0.0 0.0
0.167421 0.127387 0.019977 0.100671 0.0844971 0.0071334 -0.131692 0.0355462
0.0 0.0 0.0 0.0 0.0 0.0 0.0 0.0
0.0202826 -0.0754005 -0.0910812 -0.0694246 -0.045145 0.0710928 -0.0592651 -0.0715399
0.0 0.0 0.0 0.0 0.0 0.0 0.0 0.0
0.0646298 -0.0984158 0.0741887 -0.0627862 0.0604624 0.0215444 -0.0731203 -0.0410196
0.0 0.0 0.0 0.0 0.0 0.0 0.0 0.0
-0.0976454 -0.0453044 -0.0641136 -0.0261151 0.00657469 -0.0325069 -0.044097 -0.0886243
0.0 0.0 0.0 0.0 0.0 0.0 0.0 0.0
0.0181014 0.0142371 0.012788 0.0908703 0.00694583 -0.0970048 0.0194526 -0.00922228
0.0 0.0 0.0 0.0 0.0 0.0 0.0 0.0
-0.0426433 0.0243744 -0.0825161 -0.052905 -0.0114136 -0.00969982 0.0743491 -0.0673516
0.0 0.0 0.0 0.0 0.0 0.0 0.0 0.0
0.00682241 -0.0159843 0.0156702 -0.0265511 0.0715206 0.0206449 -0.00289174 0.0275848
0.0 0.0 0.0 0.0 0.0 0.0 0.0 0.0
0.0987226 -0.00784808 -0.0681991 0.0708318 0.0149734 -0.0159164 0.0390892 -0.0509285
0.0 0.0 0.0 0.0 0.0 0.0 0.0 0.0
-0.069288 0.0106985 -0.0791009 -0.0564939 0.0560148 0.0225337 -0.0707987 0.0233696
0.0 0.0 0.0 0.0 0.0 0.0 0.0 0.0
00000000: 50a8 3f3f 4d9e 9a3e 0875 f93e 3fe3 423e
00000010: d865 04bf e200 7a3b fa2b e4bd 8d99 dcbe
00000020: 0000 0000 0000 0000 0000 0000 0000 0000
00000030: 0000 0000 0000 0000 0000 0000 0000 0000
00000040: ee77 e43f c442 c93f a454 123f 93cc 8c39
00000050: b823 c0bf 02f1 b2bf 1c08 71bf e1eb 7bbf
00000060: 0000 0000 0000 0000 0000 0000 0000 0000
00000070: 0000 0000 0000 0000 0000 0000 0000 0000
00000080: 802c 6c3f d717 c13e efe5 fe3e 8540 8e3e
00000090: 13ec 44bd 2099 1ebe 5dfd b8be 6476 56be
000000a0: 0000 0000 0000 0000 0000 0000 0000 0000
000000b0: 0000 0000 0000 0000 0000 0000 0000 0000
000000c0: b96e 4e3f 541a 313c 3150 88bd c713 a13d
000000d0: 2bbc 30bd 4f6a a93d 642c 093d 8108 c1bd
000000e0: 0000 0000 0000 0000 0000 0000 0000 0000
000000f0: 0000 0000 0000 0000 0000 0000 0000 0000
00000100: 9f1f 2a3f f1f4 7a3e 0676 c63c bd3a 07be
00000110: 12fa d9bd 0d33 8cbe e6b0 f3be 27da 35be
00000120: 0000 0000 0000 0000 0000 0000 0000 0000
00000130: 0000 0000 0000 0000 0000 0000 0000 0000
00000140: 737f ad3e 0214 be3c 9129 0f3e 901e 75bc
00000150: 7418 003c bfa1 bbbd e0f4 5ebe 0249 78be
00000160: 0000 0000 0000 0000 0000 0000 0000 0000
00000170: 0000 0000 0000 0000 0000 0000 0000 0000
00000180: d21b 4e3e 9786 ebbc 91a9 71bc 67af 283d
00000190: 088e a0bd 65fc abbd c18c e9bd 9ca6 afbd
000001a0: 0000 0000 0000 0000 0000 0000 0000 0000
000001b0: 0000 0000 0000 0000 0000 0000 0000 0000
000001c0: 6970 2b3e bd71 023e cea6 a33c 992c ce3d
000001d0: d10c ad3d 4cbf e93b 45da 06be e498 113d
000001e0: 0000 0000 0000 0000 0000 0000 0000 0000
000001f0: 0000 0000 0000 0000 0000 0000 0000 0000
00000200: b227 a63c 946b 9abd c888 babd 7c2e 8ebd
00000210: f7e9 38bd 1a99 913d f6bf 72bd 8383 92bd
00000220: 0000 0000 0000 0000 0000 0000 0000 0000
00000230: 0000 0000 0000 0000 0000 0000 0000 0000
00000240: a15c 843d 398e c9bd 3ff0 973d 0d96 80bd
00000250: 6ca7 773d e27d b03c 19c0 95bd 2b04 28bd
00000260: 0000 0000 0000 0000 0000 0000 0000 0000
00000270: 0000 0000 0000 0000 0000 0000 0000 0000
00000280: 50fa c7bd 1b91 39bd fe4d 83bd 56ef d5bc
00000290: 7f70 d73b f525 05bd 0e9f 34bd a880 b5bd
000002a0: 0000 0000 0000 0000 0000 0000 0000 0000
000002b0: 0000 0000 0000 0000 0000 0000 0000 0000
000002c0: 6349 943c ba42 693c c284 513c 351a ba3d
000002d0: d899 e33b 74aa c6bd 0f5b 9f3c 0c19 17bc
000002e0: 0000 0000 0000 0000 0000 0000 0000 0000
000002f0: 0000 0000 0000 0000 0000 0000 0000 0000
00000300: beaa 2ebd d2ac c73c 33fe a8bd eab2 58bd
00000310: 1c00 3bbc feeb 1ebc 5744 983d a3ef 89bd
00000320: 0000 0000 0000 0000 0000 0000 0000 0000
00000330: 0000 0000 0000 0000 0000 0000 0000 0000
00000340: 868e df3b 82f1 82bc cb5e 803c b181 d9bc
00000350: 6479 923d 7e1f a93c 5983 3dbb 85f9 e13c
00000360: 0000 0000 0000 0000 0000 0000 0000 0000
00000370: 0000 0000 0000 0000 0000 0000 0000 0000
00000380: 132f ca3d 3c95 00bc f8ab 8bbd 4310 913d
00000390: fe52 753c 1c63 82bc ff1b 203d 679a 50bd
000003a0: 0000 0000 0000 0000 0000 0000 0000 0000
000003b0: 0000 0000 0000 0000 0000 0000 0000 0000
000003c0: dee6 8dbd c348 2f3c a7ff a1bd 2666 67bd
000003d0: c66f 653d 9898 b83c e9fe 90bd 9a71 bf3c
000003e0: 0000 0000 0000 0000 0000 0000 0000 0000
000003f0: 0000 0000 0000 0000 0000 0000 0000 0000

B0 f4 [16]
0.2471 -0.0 -0.0754119 -0.0 -0.324993 -0.501269 -0.446801 -0.00124541
0.2471 -0.0 -0.0754119 -0.0 -0.324993 -0.501269 -0.446801 -0.00124541
00000000: c807 7d3e 0000 0080 8e71 9abd 0000 0080
00000010: 7c65 a6be 2a53 00bf 1ac3 e4be 063d a3ba
00000020: c807 7d3e 0000 0080 8e71 9abd 0000 0080
00000030: 7c65 a6be 2a53 00bf 1ac3 e4be 063d a3ba

W1 f4 [8, 16]
1.78131 -0.295231 0.408487 0.137638 -0.0540451 0.260614 0.139302 0.0609663
-0.737745 -0.353072 -0.639948 0.00447953 0.312171 -0.474344 -0.492113 -0.394581
-0.248119 0.44884 0.100592 -0.488903 0.00400364 -0.227747 0.0834105 -0.131774
0.266528 0.291642 0.3044 -0.271233 0.0491998 -0.311708 -0.492833 0.343255
-0.206439 -0.494638 0.352676 -0.412724 -0.442796 0.240003 -0.117526 -0.49577
-0.461769 0.117699 -0.446492 -0.0259168 0.377277 -0.241584 -0.208027 -0.0948129
-1.39719 -0.277783 -0.437613 0.341813 0.59328 -0.238985 -0.509303 -0.409856
0.0458289 0.41361 0.195454 0.0319608 0.361782 0.168541 1.31187 -0.160141
-0.0371576 -0.438284 0.106272 -0.00970125 1.13068 0.517147 1.24277 -0.19738
0.83257 -0.390142 -1.43098 0.0625306 -0.856703 -0.968926 -0.00796898 -0.16355
0.292505 -0.279385 0.586729 0.370763 -0.59235 -0.328453 0.920298 -0.268757
-0.582943 -0.400774 -0.240315 -0.326763 0.878817 -0.898614 -0.307738 -0.0249605
-1.96186 0.353397 -0.274979 0.462012 0.168486 0.413824 0.947273 -0.298276
0.453408 -0.31542 0.993654 0.328365 0.00254466 -0.0210171 0.0275315 0.136789
0.946522 0.4125 0.870709 0.0453509 -0.0148825 1.07648 -0.0774812 0.152639
-0.1384 -0.0387232 0.152656 0.0230696 0.127475 0.306913 -0.368379 0.381993
00000000: f701 e43f 8528 97be 3525 d13e faf0 0c3e
00000010: 655e 5dbd 336f 853e 2fa5 0e3e cdb7 793d
00000020: dbdc 3cbf dac5 b4be a2d3 23bf 05c9 923b
00000030: e1d4 9f3e 37dd f2be 3cf6 fbbe 8506 cabe
00000040: e812 7ebe 5bce e53e 2e03 ce3d 7e51 fabe
00000050: f730 833b 8236 69be 20d3 aa3d c3ef 06be
00000060: 5c76 883e 1a52 953e 51da 9b3e 0ddf 8abe
00000070: bb85 493d 3198 9fbe 9b54 fcbe 1fbf af3e
00000080: bf64 53be 3141 fdbe f391 b43e 8f50 d3be
00000090: 28b6 e2be 59c3 753e 79b1 f0bd 91d5 fdbe
000000a0: fd6c ecbe 2c0c f13d 999a e4be 784f d4bc
000000b0: 732a c13e cc61 77be 0805 55be 442d c2bd
000000c0: 1fd7 b2bf 9339 8ebe d00e e0be 1d02 af3e
000000d0: 33e1 173f 7cb8 74be ae61 02bf a5d8 d1be
000000e0: 16b7 3b3d b1c4 d33e 1825 483e 54e9 023d
000000f0: 7e3b b93e 0396 2c3e 5beb a73f 01fc 23be
00000100: 9132 18bd c366 e0be 22a5 d93d fef1 1ebc
00000110: 1fba 903f bf63 043f 1613 9f3f fc1d 4abe
00000120: 4f23 553f b1c0 c7be 5a2a b7bf 0b10 803d
00000130: e350 5bbf 890b 78bf 5390 02bc a779 27be
00000140: 37c3 953e 8d0b 8fbe df33 163f a6d4 bd3e
00000150: 40a4 17bf fe2a a8be a698 6b3f 849a 89be
00000160: c13b 15bf 4032 cdbe 2315 76be 7b4d a7be
00000170: 27fa 603f 910b 66bf d68f 9dbe f679 ccbc
00000180: 3a1e fbbf 74f0 b43e 0cca 8cbe d68c ec3e
00000190: 9887 2c3e bde0 d33e 7c80 723f a2b7 98be
000001a0: 1825 e83e bb7e a1be 1c60 7e3f 751f a83e
000001b0: 4fc4 263b 0e2c acbc be89 e13c 6a12 0c3e
000001c0: 444f 723f 3333 d33e c9e6 5e3f dec1 393d
000001d0: bbd5 73bc 19ca 893f 77ae 9ebd 664d 1c3e
000001e0: bbb8 0dbe 389c 1ebd db51 1c3e 75fc bc3c
000001f0: ce88 023e b323 9d3e 2c9c bcbe 9694 c33e

B1 f4 [8]
0.182953 -0.0 -0.00550821 0.130513 0.0268067 0.138775 -0.280927 0.17637
00000000: 0858 3b3e 0000 0080 377e b4bb 33a5 053e
00000010: b999 db3c 091b 0e3e aad5 8fbe 569a 343e

W2 f4 [8, 8]
0.0039953 0.603081 0.0339088 -0.544092 -0.0369632 -0.334022 -0.53187 -0.521016
-0.200407 -0.435041 -0.239962 -0.288471 -0.0088606 -0.447085 0.0370178 -0.0586684
2.32422 -0.532778 0.430538 -1.37951 0.123843 -2.88794 1.6792 -0.292397
0.601815 0.204009 0.593688 -0.129774 -0.382323 0.195457 -0.337776 -0.342816
-4.09095 -0.609175 -0.0690791 -2.6579 1.45441 0.925262 0.169779 0.107913
-1.94133 -0.363173 0.0470829 -0.743788 -1.82512 -0.243958 0.902061 0.822007
-1.13131 -0.570005 0.253379 -1.57126 0.675489 0.643339 0.0454624 1.2493
1.20437 0.427203 0.00200217 -0.458182 1.90859 -2.52131 1.03207 -0.3536
00000000: 01eb 823b 8463 1a3f f4e3 0a3d 9d49 0bbf
00000010: b966 17bd ee04 abbe a228 08bf 4e61 05bf
00000020: 7e37 4dbe b2bd debe 99b8 75be 79b2 93be
00000030: 0d2c 11bc 53e8 e4be fa9f 173d 474e 70bd
00000040: 05c0 1440 2464 08bf 7a6f dc3e c993 b0bf
00000050: 66a1 fd3d 02d4 38c0 07f0 d63f 0fb5 95be
00000060: 8c10 1a3f bce7 503e f0fb 173f 7ae3 04be
00000070: d7bf c3be e125 483e faf0 acbe 9485 afbe
00000080: 10e9 82c0 e5f2 1bbf 5879 8dbd 091b 2ac0
00000090: 1b2a ba3f f8dd 6c3f 8cda 2d3e 7e01 dd3d
000000a0: 807d f8bf d0f1 b9be 00da 403d e468 3ebf
000000b0: 889d e9bf 20d0 79be 78ed 663f 0d6f 523f
000000c0: c4ce 90bf d9eb 11bf e4ba 813e 0c1f c9bf
000000d0: d9ec 2c3f ddb1 243f c836 3a3d 10e9 9f3f
000000e0: cc28 9a3f 5aba da3e d736 033b d596 eabe
000000f0: ad4c f43f 255d 21c0 df1a 843f 0f0b b5be

B2 f4 [8]
-0.0 -0.0205866 -0.540807 -0.0 0.400083 -0.1519 0.996045 -0.29216
00000000: 0000 0080 3ba5 a8bc 5472 0abf 0000 0080
00000010: aed7 cc3e ac8b 1bbe cefc 7e3f ff95 95be

W3 f4 [2, 8]
0.286461 -0.0900473 0.575124 0.753193 -0.576763 -1.70198 0.398164 0.534035
-0.681787 0.544558 -3.66544 0.60404 2.52824 2.44509 1.27626 -2.50419
00000000: 04ab 923e b86a b8bd 543b 133f 42d1 403f
00000010: bda6 13bf 7bda d9bf 27dc cb3e 85b6 083f
00000020: 9889 2ebf 2768 0b3f 9296 6ac0 5ea2 1a3f
00000030: afce 2140 5b7c 1c40 7d5c a33f a644 20c0

B3 f4 [2]
-0.48385 1.84522
00000000: 30bb f7be 2b30 ec3f
